digit_recognizer/digit_model.pt (torch, 821903 bytes, 8 tensors)

weight f4 [224, 784]
0	0xbcf1322a	-0.029442865
1	0x3bb96bbf	0.0056585963
2	0xbbc37631	-0.0059650172
3	0xbcbf9e94	-0.023391046
4	0xbc847f53	-0.016173994
5	0xbc480db5	-0.012210299
6	0x3c3c8315	0.011505862
7	0xbcdd3dde	-0.02700704
8	0xbc543497	-0.0129519915
9	0xbcd8a598	-0.026446149
10	0x3ca68c26	0.0203305
11	0x3cfdbd80	0.03097415
12	0x3c25bc0b	0.010115634
13	0x3ce0c3c4	0.027437098
14	0x3caad8c2	0.020855311
15	0xbc20f987	-0.009825117
16	0x3c56a775	0.013101448
17	0xbc0a4f61	-0.008441777
18	0xbc986332	-0.018601988
19	0x3c0b75eb	0.008512001
20	0x3c0ea593	0.008706468
21	0x3bb35e0d	0.005473858
22	0x3b862aff	0.004094481
23	0x3c88e9c4	0.01671303
24	0x3d0f8d33	0.035046767
25	0xbcf57584	-0.029963262
26	0xbbcf3465	-0.0063233846
27	0x3c88710a	0.016655464
28	0xbc2a1c8b	-0.010382782
29	0x3cab013c	0.020874612
30	0x3c361011	0.011112229
31	0x3d029dda	0.03188882
32	0x3c3fd25f	0.011707871
33	0xbc8536f7	-0.01626156
34	0xbc52822d	-0.012848419
35	0x3c3cc799	0.011522197
36	0x3b73173a	0.0037092702
37	0x3d1a6ed7	0.03770336
38	0x3c1d8ccb	0.009616087
39	0x3cd0ec00	0.025503159
40	0xbc292397	-0.010323427
41	0x3c2bf43f	0.0104952445
42	0x3c8dbd1c	0.017302088
43	0xbbc24685	-0.0059288167
44	0xbc51d0a1	-0.012806089
45	0x3ccfcf89	0.025367515
46	0xbcc60029	-0.024169998
47	0x3cea60e2	0.02861065
48	0xbcc4cac0	-0.02402246
49	0xbce4ce3e	-0.027930375
50	0xbb097048	-0.0020971466
51	0x3d039f3b	0.032134276
52	0xbd06b77b	-0.032889824
53	0xbcce9250	-0.025216252
54	0x3c85ebd6	0.016347807
55	0x3cfcbe17	0.03085236
56	0x3cc2b064	0.02376575
57	0xbcd7e28e	-0.026353147
58	0x3c13f8fd	0.009031531
59	0x3c25f145	0.010128324
60	0xbc754b35	-0.014971544
61	0x3c8368b6	0.016041141
62	0xb7db9878	-2.6177833e-05
63	0xbb3a0298	-0.0028382894
64	0x3d0ef9a9	0.034906063
65	0x3ce49d48	0.027907029
66	0xbc1c1843	-0.009527269
67	0xbd04cc6b	-0.03242151
68	0x3a4f169d	0.0007899793
69	0x3d02f196	0.031968676
70	0x3cf97dd8	0.030455515
71	0xbbb25397	-0.0054420936
72	0xbce51067	-0.027961923
73	0xbc6d3b7f	-0.014479517
74	0xbb43d146	-0.0029879375
75	0xbc6b8473	-0.01437484
76	0x3d1cdddd	0.038297523
77	0xbd029f03	-0.031889927
78	0xbbe4c1e9	-0.0069811237
79	0xbc815d8d	-0.015791679
80	0xbd04c6cb	-0.032416146
81	0x3bdbd0d1	0.0067082425
82	0x3ca96a64	0.020680614
83	0xbcbcbbfe	-0.02303886
84	0x3c80b5c8	0.01571168
85	0x3d1894bb	0.037251215
86	0xb952ff93	-0.0002012237
87	0x3cc91c28	0.024549559
88	0x3d11f623	0.035635125
89	0x39d58453	0.00040725115
90	0xbbd43c09	-0.0064768833
91	0xbbe98a47	-0.0071270796
92	0x3b88a1a1	0.0041696583
93	0x3ce892c1	0.02839029
94	0x3c54f795	0.012998481
95	0x3c970ebe	0.018439647
96	0xbc90bd50	-0.017668396
97	0x3b591ef3	0.003313002
98	0xbd01f9d3	-0.03173239
99	0xbc4750d2	-0.012165265
100	0xbbc30b52	-0.005952277
101	0x3cd36504	0.025805004
102	0xbc746cc5	-0.014918511
103	0xba91125a	-0.0011068091
104	0xbae8cec9	-0.0017761822
105	0x3c531943	0.012884441
106	0x3d13808a	0.036011256
107	0x3cb9cd72	0.022680972
108	0xbc6fd258	-0.014637552
109	0x3d213f07	0.03936675
110	0xbc3759f9	-0.011190885
111	0x3cc21408	0.023691192
112	0x3ceee380	0.029161215
113	0x3bba6721	0.0056885635
114	0x3d02a905	0.03189947
115	0xbbc08ded	-0.005876294
116	0xb9f88f3e	-0.0004740897
117	0x3c01e761	0.0079287
118	0xbd0ee97d	-0.03489064
119	0xbd01fabb	-0.031733256
120	0xbd1b0fed	-0.037856985
121	0xbbc90ca3	-0.0061355396
122	0xbd0456a8	-0.032309204
123	0xbce4f0f7	-0.027946932
124	0xbc9526f8	-0.018207058
125	0x396e3ea0	0.00022720778
126	0xbc6b9fc1	-0.01438135
127	0x3ca7ce05	0.02048398
128	0xbcdef5a1	-0.027216734
129	0x3cab47b1	0.020908209
130	0xbb77ce9f	-0.0037812365
131	0xbd3bb76d	-0.045829225
132	0x3c61a950	0.013773277
133	0x3bae22e3	0.0053142174
134	0x3c5bc154	0.013412792
135	0x3ce24600	0.02762127
136	0x3b9b96a2	0.0047481814
137	0xbce9f46b	-0.02855893
138	0x3c21cded	0.009875757
139	0x3cdcf34e	0.026971485
140	0x3c6fc7b1	0.0146350125
141	0xbcd85962	-0.026409809
142	0xbbcdf734	-0.0062855724
143	0xbc538459	-0.012909972
144	0xbac27633	-0.0014836252
145	0xbc746635	-0.014916946
146	0xbccd7099	-0.025078105
147	0x3b22e06e	0.0024853009
148	0xbd328cae	-0.043591194
149	0xbd2adf8d	-0.0417171
150	0xbd40b704	-0.047049537
151	0xbc809fce	-0.0157012
152	0x3bc7c4e4	0.0060964692
153	0xbcf50f49	-0.029914515
154	0xbc19190d	-0.0093443515
155	0xbcd2c6a8	-0.025729492
156	0xb86f9004	-5.7116165e-05
157	0xbcb6cb74	-0.02231381
158	0x3cc1bd83	0.023649937
159	0xbcd91e63	-0.026503747
160	0x3c5dddd9	0.013541662
161	0x3b76e3a5	0.0037672308
162	0xbbd96f4e	-0.006635583
163	0x3ca291ec	0.019844972
164	0x3ce0475e	0.02737778
165	0x3cce59e3	0.025189346
166	0xbcd1df53	-0.025619185
167	0x3d0a565b	0.03377376
168	0xbcb97580	-0.022639036
169	0xbcd6f7bc	-0.026241176
170	0xbc35704d	-0.011074138
171	0x3b9c330d	0.004766828
172	0x3cfdc7da	0.030979086
173	0xbd038673	-0.032110643
174	0x3cb43694	0.021998681
175	0xbd11c055	-0.035583813
176	0x3b6a4d82	0.0035751765
177	0xbc76a475	-0.015053858
178	0xbd5bfd25	-0.053708214
179	0xbd35b6e0	-0.044363856
180	0x3bf75ca5	0.007548886
181	0x3bdf9abd	0.006823866
182	0x3cdf086c	0.027225696
183	0x3c3d3c04	0.011549953
184	0xbd2918c5	-0.041283388
185	0xbcd88c5b	-0.026434114
186	0xbd0c9ba7	-0.03432813
187	0xbcf3628b	-0.029710075
188	0x3b1f9719	0.0024351536
189	0xbc21cc4c	-0.009875368
190	0xba779e70	-0.0009445911
191	0x3d07ac02	0.033123024
192	0x384a1fcd	4.819017e-05
193	0xbb17d663	-0.0023168556
194	0xbc57578b	-0.01314343
195	0xbc2fa5b3	-0.010720658
196	0x3cf34048	0.029693738
197	0xbb0b12ce	-0.0021220925
198	0xbd0235fa	-0.031789757
199	0x399c3d8f	0.00029800503
200	0xbcd618ba	-0.026134837
201	0xbcc8b1fd	-0.024498934
202	0xbc0feb7f	-0.008784174
203	0xbcaeb48d	-0.021326328
204	0xbc3335fd	-0.010938165
205	0xbd7def14	-0.06199558
206	0x3a8f5677	0.0010935803
207	0xbc32b8cb	-0.010908316
208	0xbba30826	-0.0049753366
209	0xbc166e99	-0.009181642
210	0xbcea8f3b	-0.02863275
211	0xbb98389f	-0.0046454216
212	0x3cf61f71	0.03004429
213	0xba118fec	-0.0005552757
214	0x3c8a700a	0.016899128
215	0xbb8ab120	-0.0042325407
216	0x3cb3818e	0.021912362
217	0x3bfefe75	0.0077817985
218	0xbc459074	-0.012058366
219	0x3d2d9049	0.04237393
220	0x3cd4ed55	0.025992075
221	0x3a401a3d	0.00073281286
222	0x3c8387eb	0.016056022
223	0x3c5a9a4d	0.013342452
224	0x3ae51a77	0.0017479201
225	0x3c063ed7	0.008193693
226	0x3c7f038f	0.015564813
227	0x3cf131b8	0.029442653
228	0xbd046ec2	-0.03233219
229	0x3c20d14c	0.009815525
230	0xbd0f4c14	-0.034984663
231	0xbcb5aa90	-0.022176057
232	0xbc539548	-0.012914009
233	0xbd14e743	-0.03635336
234	0x3a841402	0.0010076764
235	0xbc8dcb91	-0.017308982
236	0x3d127399	0.035754774
237	0x3bf7014d	0.007537997
238	0xbc8a0d13	-0.016851937
239	0xbd31cd17	-0.04340848
240	0xbb702bb6	-0.0036647147
241	0xbc881e35	-0.016615966
242	0x3ac63985	0.0015123343
243	0x3d00a261	0.031404857
244	0x3d3c084b	0.045906346
245	0x3d2bf092	0.041977473
246	0x3d3d7758	0.046256393
247	0xbbb07ab6	-0.005385722
248	0x3c7e2881	0.015512587
249	0x3d73923f	0.059465643
250	0xbbd8b320	-0.0066131502
251	0x3c7618ef	0.015020593
252	0xbc79f0f3	-0.015255201
253	0xbcc2c4ba	-0.023775447
254	0xbcd26d7c	-0.025686972
255	0x3c9ca599	0.019121932

bias f4 [224]
0	0x3b44e21a	0.0030041994
1	0xba9d4f22	-0.0012001733
2	0x3d00c1f3	0.031434964
3	0xbca80a50	-0.02051273
4	0xbc9a8a2b	-0.018864712
5	0xbbcf50bc	-0.006326763
6	0xbc561485	-0.013066416
7	0xbceef373	-0.02916882
8	0x3cba83ee	0.022767987
9	0x3bb36d36	0.0054756654
10	0x3b78a11e	0.003793783
11	0xbb63cdd2	-0.003476013
12	0x3d07034f	0.03296214
13	0x3c9c01b7	0.019043786
14	0x3bcfdad0	0.006343223
15	0xbd0fcc31	-0.03510684
16	0xbb8ee661	-0.0043609594
17	0xbc50440f	-0.012711539
18	0xbd42e4cf	-0.04758149
19	0x3b5644bb	0.0032694775
20	0xbc09e0be	-0.008415399
21	0x3c6350ad	0.013874215
22	0x3c2b67d5	0.010461767
23	0xbcd03849	-0.025417464
24	0x3a41608d	0.0007376753
25	0xbcfc76ec	-0.030818425
26	0xbd0c8a27	-0.03431144
27	0x3c38aeed	0.011272174
28	0x3c8fbd68	0.01754637
29	0x3d2b8cb1	0.04188222
30	0xbd23618d	-0.039887954
31	0xbc2db23f	-0.010601579
32	0x3bc2ccbc	0.0059448164
33	0x3c282325	0.010262285
34	0xbd06c7bd	-0.03290533
35	0x3b571dcd	0.003282416
36	0x3d11700b	0.035507243
37	0x3c23a4b0	0.009987995
38	0xbcf91104	-0.030403621
39	0xbcc44c12	-0.023962054
40	0xbc07ae9c	-0.008281376
41	0xbd12fc4f	-0.03588515
42	0xbc218fd4	-0.009860951
43	0xbc3c5331	-0.011494444
44	0x3bc1c5b6	0.0059134616
45	0xbcacb000	-0.021080017
46	0x3c4172d8	0.011807166
47	0xbd39af44	-0.045333162
48	0xbcbdfb56	-0.023191135
49	0xbc861ecc	-0.016372107
50	0x3c5069f5	0.012720575
51	0xbc42dea4	-0.011893902
52	0x3cac9f78	0.021072134
53	0xba8e0705	-0.0010835832
54	0x3ccad807	0.024761213
55	0x3b5b2b10	0.0033442415
56	0x3cfedec3	0.03111208
57	0xbcc9def7	-0.02464245
58	0x3cb7ec2d	0.022451485
59	0xbca51c9f	-0.02015525
60	0x3b3200a5	0.0027161029
61	0xbcedaad1	-0.029012116
62	0xbc80f919	-0.015743779
63	0xbcd0393e	-0.02541792
64	0x3b6be810	0.0035996474
65	0x3c9697b0	0.018382877
66	0x3cad5211	0.021157296
67	0x3b6892fa	0.0035487995
68	0x3bd1952b	0.006395956
69	0x3cc96cea	0.024588067
70	0xbcbb5630	-0.022868246
71	0xbd271238	-0.04078886
72	0x3be4e914	0.006985793
73	0x3c7b9e7d	0.015357611
74	0x3ca8f52d	0.020624721
75	0xbc8c6f0c	-0.017142795
76	0xbca504b5	-0.020143846
77	0xbcfd2d03	-0.030905252
78	0xbb032e85	-0.0020016741
79	0x3cb4ed20	0.022085726
80	0x3bf93823	0.007605569
81	0x3b2100d7	0.002456715
82	0x3cbf3e46	0.023345124
83	0xbccc63b9	-0.024949895
84	0xbd11105f	-0.035416003
85	0xbbdb4115	-0.006691108
86	0xbcf85feb	-0.030319175
87	0x38e6a783	0.00010998456
88	0x3d0bf32a	0.034167446
89	0x3ceaef35	0.028678516
90	0xbb8f7ac4	-0.0043786485
91	0x3ba62122	0.0050698677
92	0xbcafaf3a	-0.02144586
93	0x3cb8f6be	0.022578593
94	0xbc907848	-0.01763548
95	0x3cf13026	0.029441904
96	0x3ce1e1e4	0.027573533
97	0x3a9a61a5	0.0011778368
98	0x3c71aa81	0.014750124
99	0xbb5b20a3	-0.00334362
100	0x3d3aba70	0.045587957
101	0xbc3b3689	-0.011426576
102	0x3cca3794	0.024684705
103	0x3c49c59a	0.012315178
104	0xbc57d90c	-0.013174307
105	0x3b917488	0.0044389404
106	0x3bb25b3a	0.005443004
107	0x3bc260fd	0.005931972
108	0xbc8a7d0a	-0.016905326
109	0xbcc63ba4	-0.02419836
110	0x3ab77d1b	0.0013999076
111	0xbd261dad	-0.040555645
112	0xbcaeccca	-0.021337885
113	0xba951472	-0.0011373891
114	0xbd003d39	-0.031308386
115	0x3cea0230	0.028565496
116	0x3c99400b	0.018707296
117	0x3c4a93c4	0.012364332
118	0x3d00d532	0.03145332
119	0xbd11a630	-0.03555888
120	0xbcaf90c2	-0.02143133
121	0xbcb02680	-0.021502733
122	0x3cd5e85a	0.02611177
123	0x39543dd2	0.00020240925
124	0xbbae1fe4	-0.0053138603
125	0x3c06d81b	0.0082302345
126	0x3cc35a11	0.023846658
127	0xbcba65f3	-0.022753691
128	0xbcc1eaa3	-0.023671454
129	0xbae532e7	-0.0017486484
130	0xbc6934b8	-0.014233761
131	0xbc030c64	-0.00799856
132	0xbcccadb2	-0.024985168
133	0x3d0b12d9	0.03395352
134	0xbcb37e6a	-0.021910865
135	0xba3740ad	-0.00069905334
136	0x3cfecb7d	0.03110289
137	0x3c5d5495	0.013508935
138	0x3bf68a40	0.007523805
139	0x3b5e352f	0.0033906212
140	0x3cc6ad61	0.024252595
141	0x3ce65511	0.028116735
142	0xbc7eeede	-0.01555988
143	0xbd3af925	-0.04564776
144	0x3b4d8f36	0.0031365878
145	0x3c0fae35	0.008769562
146	0xbbb6220c	-0.005558258
147	0x3d1f2375	0.038852174
148	0x3cdfb38a	0.02730729
149	0xbcd7e4d8	-0.026354238
150	0x3be3a9a8	0.006947715
151	0x3bc00b57	0.005860727
152	0xbd1f8395	-0.038943846
153	0xbd4c6242	-0.049898393
154	0x3ba7c7cc	0.005120253
155	0x3ca3758e	0.019953515
156	0xbc4051cf	-0.011738255
157	0x3caf1b63	0.021375364
158	0xbc5bb747	-0.013410396
159	0x3c60d100	0.0137217045
160	0xbc83ea79	-0.016103016
161	0x3a1bbd42	0.00059409824
162	0x3c362cb2	0.011119055
163	0xbca5d893	-0.020244872
164	0x3c5aefdc	0.013362851
165	0x3d02c2bd	0.031924
166	0x3cd87e4b	0.026427409
167	0xbca7cf16	-0.020484488
168	0x3cbe0f6e	0.023200717
169	0x3c3e1ccc	0.011603545
170	0xbd68784b	-0.056755345
171	0x3cb77e10	0.022398978
172	0x3c027688	0.00796283
173	0x3befa4b0	0.0073133335
174	0xbce650cd	-0.0281147
175	0xbc23ee55	-0.010005553
176	0xbd1d1560	-0.038350463
177	0xbc0300ee	-0.007995827
178	0x3baf8cd4	0.005357364
179	0xbca90bdb	-0.020635536
180	0x3ce084b4	0.027407028
181	0xbd037440	-0.032093287
182	0x3c396701	0.011316062
183	0xbd0e3ef4	-0.034728006
184	0xbc81d199	-0.015847014
185	0x3ce05d2b	0.027388176
186	0x3c63a93d	0.01389533
187	0x3d0666bf	0.03281283
188	0x3bf47130	0.007459782
189	0x3c851f99	0.016250418
190	0x3cb161dc	0.021653108
191	0xbd00ae46	-0.0314162
192	0x3d07097b	0.032968026
193	0xbc903b10	-0.017606288
194	0xbca98e3e	-0.02069771
195	0xbc9bf9a1	-0.01903993
196	0x3cf104cb	0.02942123
197	0x3b69651f	0.0035613251
198	0x3cddac5a	0.027059723
199	0xbcd37015	-0.02581028
200	0x3c9e19da	0.019299436
201	0x3c13ad92	0.00901355
202	0xbc9cc845	-0.019138465
203	0x3be615ba	0.007021633
204	0x3cd142b9	0.025544511
205	0xbc9e26f2	-0.01930568
206	0xbc9987bb	-0.01874148
207	0xbd13c686	-0.036078
208	0xbc07bb4f	-0.008284404
209	0x3ce9bdd5	0.028532902
210	0x3c2ae7ef	0.010431274
211	0x3cf0b975	0.029385308
212	0x3d057754	0.032584503
213	0xbcfe0f8b	-0.03101327
214	0xbbc45dfe	-0.00599265
215	0xbc07b94d	-0.008283925
216	0x3d2a21d3	0.041536164
217	0x3c9ec80d	0.019382501
218	0xbc68ddaa	-0.014213005
219	0xbd2f5ce5	-0.0428132
220	0x3c8fbfd8	0.017547533
221	0x3ceb6748	0.028735772
222	0x3ccb6931	0.024830433
223	0xbca0bde2	-0.019621793

weight f4 [112, 224]
0	0x3d1dea09	0.03855327
1	0x3ca94507	0.020662798
2	0x3d005d82	0.031339176
3	0xbd4493f8	-0.047992676
4	0x3d8ce824	0.06880215
5	0xbd9316fe	-0.0718212
6	0x3d1f1508	0.038838416
7	0x3d0d0519	0.03442869
8	0x3c69dc0e	0.0142736565
9	0x3cd0aa03	0.025471693
10	0xbcb9460b	-0.022616407
11	0x3db3c086	0.08776955
12	0x3da6c24a	0.081425264
13	0xbd89eab2	-0.06734218
14	0xbd33091d	-0.043709863
15	0xbd55b008	-0.05216983
16	0x3ca4bae9	0.020108657
17	0xbc15fbfa	-0.009154314
18	0x3cb99b28	0.022656992
19	0xbd6f3d00	-0.058407784
20	0x3c775052	0.015094833
21	0x3d8a81a9	0.06763012
22	0x3d25eed9	0.040510986
23	0x3d84283d	0.06452987
24	0x3d9ad094	0.07559314
25	0xbc82974a	-0.01594128
26	0x3d5a68c1	0.053322557
27	0xbcaf1b61	-0.02137536
28	0xbdb614e3	-0.088907026
29	0x3da64a81	0.08119679
30	0xbcd3d4f4	-0.02585838
31	0xbc8d6d8c	-0.01726415
32	0xbd2d0b50	-0.042247117
33	0x3d813a91	0.06309999
34	0x3d01af33	0.031661224
35	0xbc95b9f7	-0.018277152
36	0x3ce11bfe	0.027479168
37	0x3c1c7ae8	0.0095507875
38	0x3ccd53c9	0.025064366
39	0x3d67c49f	0.056583997
40	0x3b82613d	0.003978877
41	0x3d984d14	0.074365765
42	0x3d5bce6f	0.053663667
43	0x3c2326a5	0.009957944
44	0x3cdb8efe	0.026801582
45	0xbd688de4	-0.056775942
46	0x3c8cdad6	0.017194193
47	0xbd78a8d1	-0.06070787
48	0x3bdb9758	0.006701391
49	0xbd89073a	-0.066908315
50	0xbc8a5163	-0.016884511
51	0x3b036d33	0.0020054101
52	0x3cbde447	0.02318014
53	0xbd70bcb4	-0.05877371
54	0xbd863507	-0.06553083
55	0x3d9a9252	0.0754744
56	0xbd0e2561	-0.034703616
57	0xbbc8ce6d	-0.0061281235
58	0x3cf08ea8	0.029364899
59	0xbc053e1d	-0.008132485
60	0x3bfc23f4	0.0076947156
61	0xbc9d987e	-0.019237753
62	0x3bcfebeb	0.0063452623
63	0xbc9a4479	-0.018831478
64	0x3c32cb9f	0.010912805
65	0x3d5b63ef	0.0535621
66	0x3d5fe846	0.054664873
67	0x3d4fc054	0.050720528
68	0xbc7a08c4	-0.015260879
69	0xbccdcf9b	-0.025123408
70	0x3d924f4f	0.07144033
71	0x3d361c76	0.044460736
72	0x3d2c06d0	0.041998684
73	0x3d8d2024	0.06890896
74	0xbdd920ed	-0.10601983
75	0x3cc3952b	0.02387484
76	0x3cb81e09	0.02247526
77	0x3d52eb6a	0.05149404
78	0xbcab1a41	-0.020886542
79	0xbc2ee1f9	-0.010673993
80	0x3c9a94b1	0.01886973
81	0xbd21b06f	-0.0394749
82	0x3c28e928	0.010309495
83	0xbd0f2ad3	-0.03495295
84	0xbd183d78	-0.037167996
85	0xbd0bdadb	-0.034144264
86	0xbc538286	-0.012909537
87	0xbd022f41	-0.031783346
88	0x3cb67784	0.022273786
89	0x3d46306e	0.04838603
90	0x3d592749	0.05301598
91	0x3c6dec57	0.01452168
92	0x3d818aa7	0.06325274
93	0xbd80f706	-0.06297116
94	0x3c860773	0.016360974
95	0xba3a4240	-0.0007105209
96	0x3d12ffdc	0.035888538
97	0x3d60c2ca	0.054873265
98	0xbd845599	-0.06461639
99	0x3d7e9c18	0.06216058
100	0x3c9d7eef	0.019225566
101	0xbb447f3c	-0.0029983064
102	0xbd33aae8	-0.04386416
103	0x3cfb4bb4	0.030675747
104	0xbd820ab0	-0.06349695
105	0x3d844197	0.06457823
106	0xbcc8a2eb	-0.024491748
107	0x3d41f6ee	0.04735463
108	0x3c87e0ee	0.016586747
109	0x3d731dec	0.059354708
110	0xbcf44776	-0.029819231
111	0xbc0c9fab	-0.00858299
112	0xbc3517e4	-0.011053059
113	0x3cb5c429	0.022188263
114	0xbc3a8d14	-0.011386175
115	0xbc6e01d1	-0.0145268
116	0xbc95bbde	-0.018278059
117	0x3d56980c	0.052391097
118	0x3c5135bc	0.012769159
119	0xbd262290	-0.040560305
120	0xbc555e26	-0.013022935
121	0x3a73f8c4	0.00093067833
122	0x3d058346	0.032595895
123	0x3d185ff1	0.03720087
124	0x3d8f57f9	0.06999201
125	0x3cb22907	0.021748079
126	0xbd83be13	-0.06432738
127	0xbd7fdaf7	-0.06246468
128	0xbcdbe39b	-0.02684193
129	0xbcf32dea	-0.02968498
130	0xbcf3e312	-0.029771362
131	0x3b5224ea	0.003206546
132	0x3d061be7	0.032741453
133	0x3cd5c7a3	0.02609617
134	0xbd36e354	-0.04465039
135	0xbc76a89a	-0.015054846
136	0xbd1abf8a	-0.037780322
137	0x3cb02e06	0.02150632
138	0xbcae2ed0	-0.021262556
139	0x3cd71be0	0.026258409
140	0xbd4286d3	-0.04749186
141	0xbd7b87a4	-0.061408654
142	0xbc9cf216	-0.019158404
143	0xbdc636d7	-0.096784286
144	0x3c8f8466	0.017519187
145	0xbd316e6e	-0.043318205
146	0xbd659d3f	-0.056058165
147	0x3ce61a4c	0.028088711
148	0xbbf78efd	-0.0075548873
149	0xbdaecbb2	-0.085349455
150	0xbccf72c3	-0.025323277
151	0xbabfceb2	-0.0014633744
152	0xbb64e736	-0.0034927852
153	0xbd22d97e	-0.039758198
154	0xbcc8e031	-0.024520965
155	0x3d1a1b0d	0.037623454
156	0x3dad6aed	0.0846766
157	0x3d461980	0.048364162
158	0x3d7b7686	0.06139233
159	0x3d87c7bf	0.066298954
160	0xbd755b46	-0.0599015
161	0xbd15ad29	-0.03654209
162	0x3bc971cf	0.0061476002
163	0xbdae6d6a	-0.08516963
164	0x3d9d4c52	0.076805726
165	0x3cd591d1	0.026070507
166	0x3cf58f1b	0.029975465
167	0x3caa5845	0.020794043
168	0x3d52500e	0.051345877
169	0xbc7ed2b4	-0.015553165
170	0x3c86a6ee	0.01643702
171	0x3d176454	0.036960915
172	0x3d3d6166	0.046235465
173	0xbb84064c	-0.004029071
174	0x3d6b78bd	0.057488192
175	0xbd4d25ea	-0.050084986
176	0x392973b7	0.00016160203
177	0x3ca239a5	0.019802878
178	0xbd0b3be3	-0.03399266
179	0x3cad4ba0	0.021154225
180	0x3cbd08cf	0.02307549
181	0xbcbd1955	-0.023083368
182	0xbc0bbc7a	-0.008528823
183	0xbd42a7c5	-0.04752328
184	0x3d65c2e5	0.05609407
185	0xbd68ab88	-0.05680421
186	0x3c372284	0.011177663
187	0x38caa2f8	9.662466e-05
188	0xbd235166	-0.03987255
189	0xbcde3bcf	-0.027128128
190	0xbd1eff2c	-0.03881757
191	0xbbc8b143	-0.006124647
192	0x3d52f8a8	0.05150667
193	0xbd1f586f	-0.038902696
194	0xbc9bfcb9	-0.019041406
195	0xbb0b580c	-0.0021262197
196	0x3be3df41	0.006954104
197	0xbd0cdbde	-0.03438937
198	0x3d634869	0.055488978
199	0x3c878f6f	0.016547887
200	0x3d0ee1b5	0.03488322
201	0xbc06b827	-0.008222616
202	0xbd646ff9	-0.055770848
203	0xbd018068	-0.0316166
204	0xbcbc8456	-0.023012321
205	0x3d0a88c0	0.03382182
206	0x3d1a92ad	0.037737537
207	0x3d52deb9	0.051481936
208	0x3d5c9a9d	0.05385839
209	0x3d17ddcb	0.037076753
210	0x3c5a8520	0.013337404
211	0xbd416dff	-0.04722404
212	0x3d2a69c0	0.041604757
213	0xbb8c3259	-0.004278463
214	0x3d1e7fd7	0.038696136
215	0x3d511539	0.05104563
216	0xbdb0f34b	-0.086401545
217	0xbd11b6d5	-0.035574753
218	0x3cee4eb6	0.029090267
219	0xbc9babcd	-0.01900282
220	0x3c5ad3f4	0.013356198
221	0xbcb30352	-0.02185217
222	0xbcd7be46	-0.026335847
223	0x3d276380	0.040866375
224	0xbd76cc9e	-0.060253732
225	0x3c188c28	0.00931076
226	0xbd82e713	-0.0639173
227	0x3d134158	0.03595099
228	0x3cffa887	0.03120829
229	0x3d881f1d	0.066465594
230	0xbcdfa8d5	-0.027302185
231	0xbd94cf37	-0.072660856
232	0xbd52be6d	-0.051451135
233	0xb8aa8ffd	-8.1330516e-05
234	0xbd2765d5	-0.0408686
235	0xbd3e1c25	-0.04641356
236	0xbb9c550b	-0.00477088
237	0xbccca086	-0.024978887
238	0xbc94c81e	-0.01816183
239	0xbd245332	-0.040118404
240	0x3cdb5da9	0.02677806
241	0x3a1dbe31	0.00060174154
242	0xbd44d1e6	-0.048051737
243	0xbcdf01c0	-0.027222514
244	0xbd5cffbb	-0.05395482
245	0x3d8a0754	0.06739679
246	0x3d25f517	0.04051694
247	0xbd588257	-0.052858677
248	0x3cb832cd	0.022485161
249	0xbd71935a	-0.058978416
250	0xbd59c370	-0.0531649
251	0x3d7e4df1	0.06208605
252	0xbd595f37	-0.05306932
253	0x3d98ad78	0.074549615
254	0x3da3cf3b	0.079985105
255	0x3c842afc	0.016133778

bias f4 [112]
0	0xbca34440	-0.019930005
1	0x3ab6e9e6	0.0013955205
2	0xbd1cbe6b	-0.038267534
3	0x3d85dd20	0.06536317
4	0xbd38634a	-0.045016564
5	0xbbefc967	-0.00731771
6	0x3ccabda6	0.024748635
7	0xbd3ffb6e	-0.04687064
8	0xbcef8935	-0.02924023
9	0xbd04ebe4	-0.032451525
10	0x3c8b08ed	0.01697203
11	0x3d498e88	0.049208194
12	0xbd64c9c0	-0.055856466
13	0xbc8d0ade	-0.017217096
14	0xbcca182c	-0.02466973
15	0x3d198f14	0.037489966
16	0xbd4a1e1e	-0.04934513
17	0xbbd695ba	-0.0065486105
18	0xbc89589d	-0.016765887
19	0x3d8f6dc6	0.070033595
20	0xbd47d136	-0.048783503
21	0xbca318a6	-0.019909214
22	0x3da99e70	0.08282173
23	0xbd199516	-0.037495695
24	0x3d825900	0.06364632
25	0xbd759951	-0.059960667
26	0x3dada8ab	0.084794365
27	0xbd184968	-0.03717938
28	0xbb953cb0	-0.0045543537
29	0xba7487ef	-0.0009328117
30	0xbd0bdfc7	-0.034148958
31	0x3d71d4bb	0.059040766
32	0xbb890e7f	-0.0041826363
33	0x3cb83e20	0.022490561
34	0x3cc724e3	0.024309581
35	0xbc9da4d3	-0.019243633
36	0x3cd02214	0.025406875
37	0x3d59b5be	0.05315184
38	0xbd0194a5	-0.0316359
39	0xbcea45ba	-0.028597701
40	0x3c3fdc0c	0.011710178
41	0x3c0b3a12	0.008497732
42	0x3d4ff2b8	0.050768584
43	0x3d7ccb43	0.061717283
44	0x3c79d402	0.0152483005
45	0xbd2f8715	-0.042853434
46	0x3dbdf8ea	0.09275992
47	0x3ce12d86	0.027487528
48	0x3ccbacbd	0.024862641
49	0xbd60da8a	-0.054895915
50	0xbd823e77	-0.063595705
51	0xbd5b57df	-0.053550597
52	0xbc371d8f	-0.011176481
53	0xbc75cdc7	-0.015002674
54	0x3d820703	0.06348994
55	0xbc2953e8	-0.010334946
56	0x3d605146	0.05476501
57	0x3da821db	0.082095824
58	0x3d830f86	0.06399445
59	0x3c84e1df	0.016220985
60	0xbd19148c	-0.03737311
61	0x3cd6dd88	0.026228681
62	0x3d864721	0.065565355
63	0x3c8f1865	0.017467687
64	0xbd3a716e	-0.04551833
65	0x3d1fae3a	0.038984515
66	0xbd2b3da5	-0.041806836
67	0x3d9fca6d	0.078022815
68	0x3d924367	0.07141762
69	0xbd570466	-0.05249443
70	0x3d70e361	0.058810595
71	0x3ce26d6b	0.027640065
72	0x3d8027a8	0.06257564
73	0x3ce7b04c	0.028282307
74	0x3d0dad55	0.03458913
75	0xbd74535b	-0.059649806
76	0xbc155b84	-0.009116057
77	0x3b6c5c05	0.003606559
78	0xbc107731	-0.00881748
79	0x3c011fed	0.007881147
80	0x3c334cb2	0.010943579
81	0x3d5ecbbe	0.054393522
82	0x3bd40b81	0.006471098
83	0xbcd38bb8	-0.025823459
84	0xbc7367d7	-0.0148563
85	0xbb79a856	-0.003809472
86	0xbc488fd8	-0.012241326
87	0xbd8fd6a8	-0.07023364
88	0x3cec06d4	0.02881185
89	0xbcb145e2	-0.021639768
90	0xbbadc4f1	-0.0053030183
91	0x3a7f2e62	0.00097343896
92	0x3d48a3c4	0.048984304
93	0x3ca10427	0.0196553
94	0xbcdc8c9f	-0.026922522
95	0xbd836d13	-0.06417289
96	0x3d810f1d	0.06301711
97	0xbc52a30b	-0.012856255
98	0x3cd64051	0.026153715
99	0x3bfc9cec	0.007709136
100	0x3d7b2b1a	0.0613204
101	0x3a4037a0	0.00073325075
102	0x3bbac792	0.00570006
103	0xbd6daf1c	-0.058028325
104	0x3db3b96f	0.08775603
105	0x3d26c8fe	0.040719025
106	0xbd36e825	-0.044654984
107	0xbce2d937	-0.027691467
108	0xbc6d8917	-0.014498017
109	0x3d50e63c	0.05100082
110	0xbd241608	-0.040060073
111	0x3c01e7dd	0.007928816

weight f4 [28, 112]
0	0x3d85c9b2	0.06532611
1	0x3d9da5de	0.07697652
2	0x3be55629	0.0069987965
3	0x3c5e4cd8	0.013568126
4	0x3d51ce59	0.05122218
5	0xbd4bc980	-0.049752712
6	0xbdae115b	-0.08499404
7	0x3db8697a	0.09004493
8	0xbd852916	-0.06501977
9	0x3ce0127f	0.02735257
10	0xbd9c2858	-0.076248825
11	0x3c7b2571	0.015328751
12	0xbd4d9e54	-0.05019982
13	0xbd1b5bba	-0.037929274
14	0xbd8fff7e	-0.07031153
15	0x3d693e32	0.05694408
16	0xbc5799b9	-0.013159209
17	0xbda7bce5	-0.08190326
18	0xbd975dc3	-0.073909305
19	0x3dacab31	0.0843109
20	0x3dc17d8f	0.094477765
21	0xbcd7be6f	-0.026335923
22	0xbc9f7973	-0.019467091
23	0x3d889d6d	0.066706516
24	0x3dcb033e	0.09912728
25	0xbd90a2c2	-0.070622936
26	0xbc0c5fa6	-0.008567726
27	0x3d25ad42	0.040448435
28	0xbd5a5463	-0.053303134
29	0x3c93eb90	0.01805666
30	0x3ca65086	0.020302068
31	0xbd9c4c23	-0.076317094
32	0xbd8d111c	-0.06888029
33	0x3d9b93a5	0.0759652
34	0x3ce76ff6	0.02825163
35	0xbcd57939	-0.02605878
36	0x3d55b982	0.052178867
37	0x3d8dac8a	0.06917675
38	0xbd72ea15	-0.05930527
39	0xbcb82cb6	-0.022482257
40	0xbbd6ada2	-0.0065514604
41	0x3da824e8	0.08210164
42	0x3ba6bc3d	0.0050883577
43	0x3cddebcd	0.027089978
44	0x3ccf548c	0.02530887
45	0x3ddf2ead	0.108975746
46	0x3d9c9fb1	0.07647646
47	0x3daa609a	0.083192065
48	0x3cd15bb4	0.025556423
49	0xbdc5b49b	-0.096535884
50	0xbd936e87	-0.07198816
51	0xbc04c983	-0.008104685
52	0x3d805a8f	0.06267273
53	0x3da57ac2	0.08080055
54	0xbcf93d5b	-0.030424764
55	0xbc06ae09	-0.008220204
56	0xbd9ddc8b	-0.07708081
57	0xbd1b7cda	-0.037960865
58	0xbdc376b8	-0.09544128
59	0x3cae00be	0.021240588
60	0xbca3e733	-0.020007705
61	0xbb85e0b4	-0.0040856246
62	0x3cdbb7e7	0.02682109
63	0xbdf9078f	-0.12159645
64	0xbc864712	-0.01639131
65	0x3d2b4231	0.041811172
66	0x3cefd62d	0.029276932
67	0xbd585f61	-0.052825335
68	0x3c9153a3	0.017740076
69	0x3d16fd3d	0.0368626
70	0x3db4a025	0.08819608
71	0x3d5f6629	0.054540787
72	0x3d5d9070	0.054092824
73	0xbd32ea4d	-0.043680478
74	0xbce01a7d	-0.02735638
75	0xbd0e1e7d	-0.034697045
76	0xbd72a51e	-0.0592395
77	0x3de3c61f	0.11121773
78	0x3d683a8c	0.05669646
79	0x3d29b9e3	0.04143704
80	0xbd71f5f9	-0.05907247
81	0x3d1d6d77	0.038434472
82	0x3d7a0565	0.0610403
83	0x3d70a92c	0.058755085
84	0x3d6d9be3	0.058009993
85	0x3cd3d338	0.025857553
86	0x3d993809	0.07481391
87	0xbd1e0e5a	-0.038587905
88	0xbda00a46	-0.078144595
89	0xbdee9def	-0.11651217
90	0x3dae6e91	0.085171826
91	0xbd10137d	-0.035174835
92	0x3d80aa26	0.06282453
93	0x3c80d233	0.01572523
94	0x3b153ee6	0.0022773086
95	0xbc8e8b80	-0.017400503
96	0x3d5e5c3b	0.054287177
97	0x3d303341	0.04301763
98	0xbda7fee8	-0.082029164
99	0xbde7f34a	-0.113257006
100	0xbd4efd80	-0.050534725
101	0x3d94214f	0.072329156
102	0xbd788ff4	-0.06068416
103	0x3c2d2c74	0.0105696805
104	0x3db6236a	0.088934734
105	0x3d93ff50	0.07226431
106	0xbd99c60b	-0.07508477
107	0x3ac10cda	0.0014728562
108	0xbcc4816d	-0.023987496
109	0xbc34f6b1	-0.011045144
110	0xbcf43d8e	-0.029814508
111	0x3dd9cbab	0.1063455
112	0x3d9cae90	0.07650483
113	0x3da33aea	0.07970221
114	0xbc26df5e	-0.010185091
115	0x3da732dc	0.081639975
116	0x3d5908d4	0.052986935
117	0x3cd54866	0.026035499
118	0x3c65c790	0.01402463
119	0x3ca0098a	0.019535799
120	0xbd022074	-0.03176923
121	0x3d1df4cd	0.03856354
122	0x3d5149b2	0.051095672
123	0x3cd2dd2f	0.025740234
124	0xbc15a792	-0.00913419
125	0x3d82ceb2	0.0638708
126	0x3d373291	0.04472596
127	0x3c818084	0.015808351
128	0x3c919fed	0.017776454
129	0xbcb4fc26	-0.02209289
130	0x3da24cdc	0.07924816
131	0xbc69ec9a	-0.014277602
132	0xbd4e94ed	-0.050434995
133	0xbd9b77e1	-0.075912245
134	0x3c9daeb1	0.019248338
135	0xbd5abd40	-0.05340314
136	0x3d30c178	0.043153256
137	0xbd993c08	-0.07482153
138	0xbd6ae5c0	-0.057348013
139	0x3cf8a0c8	0.030350104
140	0x3d8984ac	0.06714758
141	0x3c293085	0.010326509
142	0x3c897359	0.016778635
143	0xbd888e47	-0.06667762
144	0x3cf445cc	0.029818438
145	0x3daa31f7	0.08310311
146	0x3c8bf1c4	0.017083056
147	0xbb88e806	-0.00417805
148	0x3c2d20ed	0.010566932
149	0xbdb4a8f3	-0.08821287
150	0xbd54ae99	-0.05192432
151	0xbcc41880	-0.023937464
152	0x3d8963d5	0.067084946
153	0xbd2fdd64	-0.042935744
154	0x3d03a9b1	0.032144252
155	0x3c9a6f5c	0.018851928
156	0xbcee51e9	-0.029091792
157	0xbda19d40	-0.07891321
158	0xbcbc73f6	-0.023004513
159	0xbddb5705	-0.10709957
160	0x3da35924	0.079759866
161	0x3d8f7f32	0.070066825
162	0xbd71ab79	-0.05900142
163	0x3c611027	0.013736761
164	0x3a0edc8e	0.00054497353
165	0x3d515148	0.051102906
166	0x3d2ca173	0.042146157
167	0x3d839a2b	0.064258896
168	0xbc40742e	-0.011746449
169	0xbda74f13	-0.08169379
170	0xbdd9de63	-0.1063812
171	0x3d8236ce	0.063581094
172	0x3ceb2cff	0.02870798
173	0xbd8f5a2f	-0.06999623
174	0x3dc3a1f3	0.09552374
175	0xbd87c277	-0.06628888
176	0x3d89436a	0.06702311
177	0x3c94b095	0.018150607
178	0xbd026fd4	-0.03184493
179	0x3c4834db	0.012219633
180	0x3c38ba6b	0.011274914
181	0x3c464529	0.01210145
182	0x3d848777	0.0647115
183	0x3cb714f6	0.022348862
184	0xbd29c74b	-0.041449826
185	0x3d2f2f12	0.0427695
186	0xbd5b32ec	-0.05351536
187	0xbd8d889f	-0.06910824
188	0x3c6bdeeb	0.0143964095
189	0xbd2f4037	-0.04278585
190	0xbdec4da3	-0.115382455
191	0xbd3c7d87	-0.04601815
192	0xbd953d05	-0.07287029
193	0xbce3a31a	-0.027787734
194	0x3dbcb045	0.09213308
195	0xbd8316b7	-0.06400817
196	0x3da386bf	0.07984685
197	0xbd20bee6	-0.039244555
198	0xbd17d6df	-0.03707015
199	0x3e0c1559	0.13680018
200	0x3d102cc6	0.03519895
201	0xbb83f024	-0.0040264297
202	0xbd291fe0	-0.041290164
203	0xbbc3ba31	-0.0059731235
204	0xbc6fef69	-0.014644482
205	0xbdb4728f	-0.08810913
206	0x3dc1c45b	0.0946128
207	0x3cd936ee	0.02651545
208	0xbc3d85c8	-0.0115675405
209	0xbd094082	-0.033508785
210	0xbd97f543	-0.07419827
211	0xbd7af95e	-0.06127297
212	0xbc38a2ed	-0.011269313
213	0x3d45db01	0.04830456
214	0xbd0dde90	-0.03463608
215	0x3da57501	0.08078957
216	0x3d3b030c	0.045657203
217	0x3d97e5ac	0.07416853
218	0x3dc09024	0.09402493
219	0xbb8eb48e	-0.00435502
220	0xbc41d2bf	-0.011830031
221	0xbd8be278	-0.06830305
222	0xbcdc8f1a	-0.026923705
223	0x3d171114	0.03688152
224	0xba946e0d	-0.0011324302
225	0xbc6821d2	-0.01416822
226	0xbe035f42	-0.12829307
227	0x3e143339	0.14472665
228	0x3e07fe14	0.13280517
229	0xbda30ee3	-0.07961824
230	0x3d5fcde9	0.05463973
231	0xbd92bf84	-0.07165435
232	0xbab70193	-0.0013962261
233	0xbdb81511	-0.08988393
234	0x3e2dc19b	0.16968386
235	0x3be918dc	0.007113559
236	0xbdb28e71	-0.08718575
237	0xbcc99ff7	-0.02461241
238	0xbb3e6d52	-0.002905686
239	0x3e026d6d	0.12737055
240	0xbd581be6	-0.05276098
241	0x3d7d7f68	0.061889082
242	0x3cf41f72	0.02980015
243	0x3dfcebb0	0.12349641
244	0xbc585133	-0.013202953
245	0xbd613bc0	-0.054988623
246	0x3df8a7a5	0.12141351
247	0x3d4d62ec	0.050143167
248	0xbe333694	-0.17501289
249	0x3c0cf69b	0.008603717
250	0x3e124a6e	0.14286205
251	0x3c65c051	0.014022903
252	0x3c81b8f8	0.01583527
253	0x3e065d3a	0.131215
254	0xbda2d519	-0.079508014
255	0x3c8fcc27	0.017553402

bias f4 [28]
0	0xba61552a	-0.0008595759
1	0x3d2a0f1a	0.04151831
2	0xbcd10c2f	-0.025518505
3	0xbcd275e4	-0.02569098
4	0x3c692186	0.014229184
5	0x3d7ec5f2	0.062200494
6	0x3de28fc2	0.11062576
7	0x3b8dea23	0.00433089
8	0x3d89778c	0.06712255
9	0x3e01705f	0.12640522
10	0x3d9ac37b	0.07556816
11	0xbba9e1f7	-0.005184408
12	0xbd40f916	-0.047112547
13	0x3d4fe716	0.05075749
14	0x3ccc22a0	0.024918854
15	0x3e06de34	0.13170701
16	0x3dccadc0	0.09994078
17	0xbcdf81a1	-0.027283492
18	0x3db6b369	0.089209385
19	0x3d9a1705	0.07523922
20	0x3d154270	0.036440313
21	0x3dad4ebd	0.08462284
22	0x3de83456	0.11338107
23	0x3ca5afbd	0.0202254
24	0x3e043e61	0.1291442
25	0xbcce16a0	-0.025157273
26	0x3d67210a	0.056427993
27	0xbc86530c	-0.016397022

weight f4 [10, 28]
0	0xbe3af66c	-0.18258065
1	0xbe27ebb1	-0.16398503
2	0xbe481fb0	-0.19543338
3	0xbe63b3e2	-0.22236589
4	0x3ee8959e	0.4542665
5	0x3e8891e4	0.26673806
6	0xbf09121a	-0.53543246
7	0xbd8422ae	-0.06451927
8	0x3e5b6de1	0.21428634
9	0x3f1e8014	0.6191418
10	0xbef3d484	-0.47623074
11	0xbde6ba09	-0.11265952
12	0xbea54af9	-0.32283762
13	0xbe614ca6	-0.22001895
14	0xbee044c1	-0.43802455
15	0xbe630da9	-0.2217318
16	0x3dc4dd72	0.0961255
17	0x3e990ab6	0.29890984
18	0xbed80930	-0.4219451
19	0x3e6697ac	0.22518796
20	0x3dd27d3a	0.10277791
21	0xbea8a149	-0.3293555
22	0x3e5ae825	0.21377619
23	0xbe8594db	-0.2609013
24	0xbef246cf	-0.47319648
25	0x3f4227c6	0.7584194
26	0x3e32803e	0.17431733
27	0x3e3517e5	0.17684896
28	0xbdef765a	-0.11692496
29	0xbd692037	-0.056915488
30	0xbe03e694	-0.12880927
31	0x3e852e98	0.2601211
32	0xbee9439f	-0.45559403
33	0x3eba5db0	0.36399603
34	0x3f0fa5b8	0.5611224
35	0xbd348aab	-0.044077557
36	0xbd91da59	-0.07121725
37	0xbef232d9	-0.4730442
38	0x3e40f49d	0.18843313
39	0xbec9efb5	-0.39440694
40	0x3dabe235	0.08392755
41	0x3e0d4dd8	0.13799226
42	0x3e843903	0.25824746
43	0x3f0258db	0.5091683
44	0x3eba4d21	0.3638697
45	0xbec8db18	-0.39229655
46	0xbe3d58fd	-0.18490978
47	0xbebefa0a	-0.3730014
48	0xbe5ae51a	-0.21376458
49	0xbe9fda84	-0.31221402
50	0xbeac4328	-0.33644986
51	0x3ec64caf	0.3873038
52	0x3ddd172c	0.10795435
53	0xbe2a4edd	-0.16631646
54	0xbe3e74ff	-0.18599318
55	0x3e6d998e	0.23203108
56	0x3de2a9bb	0.1106753
57	0x3e00b3b9	0.12568559
58	0xbec2e42d	-0.3806471
59	0x3db0684c	0.08613643
60	0x3dd1eef3	0.10250654
61	0xbe56a3c5	-0.2096091
62	0x3ee65105	0.44983688
63	0x3d5d4858	0.05402407
64	0x3c51e981	0.012812019
65	0x3a7b3d4a	0.0009584023
66	0xbeea7d1e	-0.45798582
67	0x3ed690ec	0.41907442
68	0x3f46774e	0.77525795
69	0x3e8267be	0.25469774
70	0xbee3e4bd	-0.4451045
71	0x3e9f9fb8	0.31176543
72	0xbbdf86fc	-0.0068215113
73	0x3ea23b00	0.31685638
74	0xbe1c4b96	-0.15263209
75	0x3e344b6b	0.17606895
76	0xbefa7ed6	-0.48924893
77	0xbef69283	-0.48158655
78	0x3e48ec35	0.19621356
79	0xbebc6935	-0.36799017
80	0xbeea3fd5	-0.45751825
81	0xbe314167	-0.17310105
82	0x3e693e20	0.22777605
83	0xbe599626	-0.21248683
84	0xbe3998d7	-0.1812471
85	0x3caadbf2	0.020856831
86	0x3f0a73e9	0.54083115
87	0x3f0fc1ce	0.561551
88	0x3ee035c5	0.43791023
89	0x3ee9a85f	0.4563627
90	0xbafac0d1	-0.001913095
91	0xbe4b38f0	-0.19845939
92	0xbe8fb777	-0.2806966
93	0xbedb4be7	-0.42831346
94	0xbf143dff	-0.579071
95	0xbe699f48	-0.22814667
96	0x3f2d0b87	0.67595714
97	0x3e6f664b	0.23378865
98	0xbdc230ab	-0.09481939
99	0xbef3f85f	-0.4765043
100	0xbe241b9a	-0.16026154
101	0xbe3a2ced	-0.181812
102	0xbe4450c4	-0.19171435
103	0x3d4fc89c	0.050728425
104	0xbeb26d78	-0.34849143
105	0x3e886a1f	0.26643464
106	0x3e8c1a35	0.27363744
107	0x3e2ab5de	0.1667094
108	0x3dca55f8	0.098796785
109	0xbe981d26	-0.29709738
110	0xbe600c20	-0.21879625
111	0x3d07b657	0.033132877
112	0xbe10b24e	-0.14130518
113	0xbd9d9e6f	-0.076962344
114	0x3e9cbf08	0.30614495
115	0xbec9dd55	-0.39426675
116	0xbf17ab37	-0.5924563
117	0xbe69c6b0	-0.228297
118	0xbc87c399	-0.01657276
119	0xbea7c846	-0.32769984
120	0xbe7426bf	-0.23842905
121	0x3e9f6c6c	0.31137407
122	0x3f4a025c	0.7890985
123	0xbe6cdb7a	-0.23130599
124	0xbf124453	-0.57135504
125	0x3e8d2c81	0.27573016
126	0xbde665f7	-0.11249917
127	0x3e266ee0	0.16253233
128	0xbe15ff69	-0.14648212
129	0x3f0f9fde	0.5610331
130	0x3f01f802	0.50769055
131	0xbe70a909	-0.23501982
132	0xbdfd536c	-0.12369427
133	0x3d7cc1b8	0.061708182
134	0xbe2035d4	-0.15645534
135	0xbe537e4a	-0.20653644
136	0x3e974d8a	0.29551345
137	0xbec667be	-0.38751024
138	0x3e4eaf83	0.2018414
139	0x3e198f5a	0.1499609
140	0xbcaf46a6	-0.021395992
141	0x3e820b28	0.25399137
142	0x3c041fcf	0.008064224
143	0x3d980d6b	0.07424434
144	0x3f38504b	0.7199752
145	0x3b1acafb	0.002361952
146	0xbe931f9a	-0.28735048
147	0x3df8929e	0.1213734
148	0xbcdb6c90	-0.026785165
149	0x3ea504b3	0.32230148
150	0xbecb4b88	-0.39706063
151	0xbef537cd	-0.47894135
152	0xbe32bb13	-0.17454176
153	0xbee8f587	-0.45499822
154	0xbd929e34	-0.07159081
155	0x3e117fbb	0.14208882
156	0xbd7b04c8	-0.061283857
157	0xbe8de06a	-0.27710277
158	0x3ecc2c30	0.39877462
159	0x3de09b23	0.1096709
160	0x3ea4bf5d	0.3217725
161	0x3e98efad	0.29870358
162	0xbebcd315	-0.36879793
163	0x3ec62c57	0.38705704
164	0x3f07cf7c	0.5305097
165	0x3d1b8900	0.03797245
166	0x3e4b85a5	0.198752
167	0xbd6cf266	-0.057848357
168	0xbbe6c2af	-0.007042251
169	0xbe3734fb	-0.17891304
170	0xbe7ff467	-0.24995576
171	0x3e578e5b	0.21050398
172	0xbe2b2d64	-0.16716534
173	0xbe63becc	-0.22240752
174	0xbe3666e2	-0.17812684
175	0x3e6cc87a	0.2312335
176	0xbe1b9c86	-0.15196428
177	0x3f29a307	0.66264385
178	0x3eee2030	0.46508932
179	0xbeb8787c	-0.36029422
180	0x3c6fd200	0.01463747
181	0xbf19f478	-0.60138655
182	0xbeddf2b1	-0.4334922
183	0x3f1ef1a0	0.6208744
184	0xbdb77a7a	-0.089589074
185	0x3ea24ebd	0.31700698
186	0xbeb627bd	-0.35577193
187	0x3ef1a9e4	0.4719993
188	0xbd4b78d0	-0.049675763
189	0xbee2f5b1	-0.44328073
190	0xbeee7dc5	-0.4658033
191	0xbdbf20a5	-0.09332398
192	0xbdcd17d6	-0.10014312
193	0xbdd4435c	-0.1036441
194	0xbdc02db1	-0.09383715
195	0xbc7987a0	-0.015230089
196	0xbd350f8c	-0.04420428
197	0x3c240e67	0.010013199
198	0xbe84b04a	-0.25915748
199	0xbe92fc54	-0.28708136
200	0xbe9507b4	-0.2910744
201	0xbd80ba18	-0.062854946
202	0x3e19879e	0.1499314
203	0x3e07cbce	0.13261339
204	0x3f43ac8e	0.7643517
205	0xbe9d618a	-0.3073848
206	0xbe791e27	-0.24327908
207	0x3ec5af1f	0.3861017
208	0x3ddf69b8	0.10908836
209	0x3e22a37a	0.15882674
210	0x3e83b2a4	0.2572223
211	0x3c07e954	0.008295376
212	0x3ea20f13	0.31652126
213	0xba9db478	-0.0012031933
214	0xbd990531	-0.07471693
215	0xbf206093	-0.6264736
216	0xbec67823	-0.38763532
217	0x3f487e1f	0.78317446
218	0x3e7648aa	0.24051157
219	0xbe8422d5	-0.25807825
220	0xbef52be1	-0.4788504
221	0xbe70f498	-0.23530805
222	0xbd9fdb6d	-0.07805524
223	0x3e1e0a72	0.15433672
224	0x3e47d997	0.19516598
225	0xbcdc66de	-0.02690452
226	0x3dd4f976	0.103991434
227	0x3e369650	0.17830777
228	0xbe1de2b5	-0.15418513
229	0xbe60984c	-0.21933097
230	0x3e75d381	0.24006464
231	0x3e73dfe7	0.2381588
232	0xbed353fa	-0.41275007
233	0xbd1ab26e	-0.03776782
234	0x3af4f232	0.0018687902
235	0x3f066c69	0.5250917
236	0x3e82a841	0.25518993
237	0xbdba68e2	-0.09102036
238	0x3f2d7522	0.67756855
239	0xbe89387f	-0.26800916
240	0xbe91f1b8	-0.2850473
241	0xbed67204	-0.41883862
242	0xbe52be4a	-0.20580402
243	0x3e83870b	0.25688967
244	0x3ec39e1b	0.38206562
245	0xbeb5f75f	-0.35540292
246	0xbdd6fbf1	-0.10497273
247	0xbe896840	-0.2683735
248	0x3ecf9eab	0.40550742
249	0x3decc935	0.11561815
250	0x3f055dcc	0.5209625
251	0xbe85bff6	-0.26123017
252	0xbda9534e	-0.08267842
253	0x3d9a990b	0.07548722
254	0x3e147d7d	0.14500995
255	0xbecbf813	-0.39837703

bias f4 [10]
0	0x3d7ace84	0.061232105
1	0x3dbd286f	0.09236228
2	0xbde1cf24	-0.11025837
3	0xbc9f62aa	-0.019456226
4	0xbdd19979	-0.10234351
5	0xbd2caa99	-0.042154882
6	0xbe3b18fa	-0.18271247
7	0xbd2d8099	-0.04235897
8	0xbe468455	-0.19386418
9	0xbccf6d45	-0.025320658
